…
â–ˆâ–ˆâ–ˆâ–ˆâ–| 37.8M/41.1M [00:04<00:00, 7.71MB/s] 94%|â–ˆâ–ˆâ–ˆâ–ˆâ–ˆâ–ˆâ–ˆâ–ˆâ–ˆâ–| 38.7M/41.1M [00:04<00:00, 8.21MB/s] 96%|â–ˆâ–ˆâ–ˆâ–ˆâ–ˆâ–ˆâ–ˆâ–ˆâ–ˆâ–Œ| 39.5M/41.1M [00:04<00:00, 7.26MB/s] 98%|â–ˆâ–ˆâ–ˆâ–ˆâ–ˆâ–ˆâ–ˆâ–ˆâ–ˆâ–Š| 40.2M/41.1M [00:04<00:00, 6.82MB/s] 99%|â–ˆâ–ˆâ–ˆâ–ˆâ–ˆâ–ˆâ–ˆâ–ˆâ–ˆâ–‰| 40.9M/41.1M [00:04<00:00, 6.45MB/s]100%|â–ˆâ–ˆâ–ˆâ–ˆâ–ˆâ–ˆâ–ˆâ–ˆâ–ˆâ–ˆ| 41.1M/41.1M [00:04<00:00, 8.71MB/s]

Overriding model.yaml nc=80 with nc=11

                 from  n    params  module                                  arguments                     
  0                -1  1      5280  models.common.Focus                     [3, 48, 3]                    
  1                -1  1     41664  models.common.Conv                      [48, 96, 3, 2]                
  2                -1  1     65280  models.common.C3                        [96, 96, 2]                   
  3                -1  1    166272  models.common.Conv                      [96, 192, 3, 2]               
  4                -1  1    629760  models.common.C3                        [192, 192, 6]                 
  5                -1  1    664320  models.common.Conv                      [192, 384, 3, 2]              
  6                -1  1   2512896  models.common.C3                        [384, 384, 6]                 
  7                -1  1   2655744  models.common.Conv                      [384, 768, 3, 2]              
  8                -1  1   1476864  models.common.SPP                       [768, 768, [5, 9, 13]]        
  9                -1  1   4134912  models.common.C3                        [768, 768, 2, False]          
 10                -1  1    295680  models.common.Conv                      [768, 384, 1, 1]              
 11                -1  1         0  torch.nn.modules.upsampling.Upsample    [None, 2, 'nearest']          
 12           [-1, 6]  1         0  models.common.Concat                    [1]                           
 13                -1  1   1182720  models.common.C3                        [768, 384, 2, False]          
 14                -1  1     74112  models.common.Conv                      [384, 192, 1, 1]              
 15                -1  1         0  torch.nn.modules.upsampling.Upsample    [None, 2, 'nearest']          
 16           [-1, 4]  1         0  models.common.Concat                    [1]                           
 17                -1  1    296448  models.common.C3                        [384, 192, 2, False]          
 18                -1  1    332160  models.common.Conv                      [192, 192, 3, 2]              
 19          [-1, 14]  1         0  models.common.Concat                    [1]                           
 20                -1  1   1035264  models.common.C3                        [384, 384, 2, False]          
 21                -1  1   1327872  models.common.Conv                      [384, 384, 3, 2]              
 22          [-1, 10]  1         0  models.common.Concat                    [1]                           
 23                -1  1   4134912  models.common.C3                        [768, 768, 2, False]          
 24      [17, 20, 23]  1     64656  models.yolo.Detect                      [11, [[10, 13, 16, 30, 33, 23], [30, 61, 62, 45, 59, 119], [116, 90, 156, 198, 373, 326]], [192, 384, 768]]
Model Summary: 391 layers, 21096816 parameters, 21096816 gradients

Transferred 500/506 items from yolov5m.pt
Scaled weight_decay = 0.0005
Optimizer groups: 86 .bias, 86 conv.weight, 83 other
…
